…
  - bash
  - fish
  - tcsh
  - xonsh
  - zsh
  - powershell

See 'conda init --help' for more information and options.

IMPORTANT: You may need to close and restart your shell after running 'conda init'.


SLURM_JOBID=/var/spool/slurm/slurmd/job30198707/slurm_script
Job Detail : AE ..AE.AE_12 10 Max 10-1_Rerun 6 3 captureBatchSize:10
Training Size : 1734
Validation Size : 744
----------------------------------------------------------------
        Layer (type)               Output Shape         Param #
================================================================
            Conv2d-1         [-1, 64, 256, 256]           1,792
              ReLU-2         [-1, 64, 256, 256]               0
         MaxPool2d-3         [-1, 64, 127, 127]               0
            Conv2d-4        [-1, 128, 127, 127]          73,856
              ReLU-5        [-1, 128, 127, 127]               0
         MaxPool2d-6          [-1, 128, 63, 63]               0
            Conv2d-7          [-1, 256, 63, 63]         295,168
              ReLU-8          [-1, 256, 63, 63]               0
         MaxPool2d-9          [-1, 256, 31, 31]               0
           Conv2d-10          [-1, 512, 31, 31]       1,180,160
             ReLU-11          [-1, 512, 31, 31]               0
        MaxPool2d-12          [-1, 512, 15, 15]               0
           Conv2d-13          [-1, 512, 15, 15]       2,359,808
             ReLU-14          [-1, 512, 15, 15]               0
        MaxPool2d-15            [-1, 512, 7, 7]               0
           Conv2d-16            [-1, 512, 7, 7]       2,359,808
             ReLU-17            [-1, 512, 7, 7]               0
        MaxPool2d-18            [-1, 512, 3, 3]               0
           Linear-19                   [-1, 12]          55,308
  ConvTranspose2d-20             [-1, 64, 4, 4]           1,792
             ReLU-21             [-1, 64, 4, 4]               0
  ConvTranspose2d-22            [-1, 512, 8, 8]         295,424
             ReLU-23            [-1, 512, 8, 8]               0
  ConvTranspose2d-24          [-1, 256, 16, 16]       1,179,904
             ReLU-25          [-1, 256, 16, 16]               0
  ConvTranspose2d-26          [-1, 128, 32, 32]         295,040
             ReLU-27          [-1, 128, 32, 32]               0
  ConvTranspose2d-28           [-1, 64, 64, 64]          73,792
             ReLU-29           [-1, 64, 64, 64]               0
  ConvTranspose2d-30         [-1, 32, 128, 128]          18,464
             ReLU-31         [-1, 32, 128, 128]               0
  ConvTranspose2d-32          [-1, 3, 256, 256]             867
================================================================
Total params: 8,191,183
Trainable params: 8,191,183
Non-trainable params: 0
----------------------------------------------------------------
Input size (MB): 0.75
Forward/backward pass size (MB): 152.40
Params size (MB): 31.25
Estimated Total Size (MB): 184.40
----------------------------------------------------------------
Training Epoch :   0 | Total loss : 0.4515 
…
