…
Currently supported shells are:
  - bash
  - fish
  - tcsh
  - xonsh
  - zsh
  - powershell

See 'conda init --help' for more information and options.

IMPORTANT: You may need to close and restart your shell after running 'conda init'.


SLURM_JOBID=/var/spool/slurm/slurmd/job30160104/slurm_script
Job Detail : AE ..AE.AE_10 100 Max 100-18 8 3
Training Size : 1734
Validation Size : 744
----------------------------------------------------------------
        Layer (type)               Output Shape         Param #
================================================================
            Conv2d-1         [-1, 64, 256, 256]           1,792
              ReLU-2         [-1, 64, 256, 256]               0
         MaxPool2d-3         [-1, 64, 127, 127]               0
            Conv2d-4        [-1, 128, 127, 127]          73,856
              ReLU-5        [-1, 128, 127, 127]               0
         MaxPool2d-6          [-1, 128, 63, 63]               0
            Conv2d-7          [-1, 256, 63, 63]         295,168
              ReLU-8          [-1, 256, 63, 63]               0
         MaxPool2d-9          [-1, 256, 31, 31]               0
           Conv2d-10          [-1, 512, 31, 31]       1,180,160
             ReLU-11          [-1, 512, 31, 31]               0
        MaxPool2d-12          [-1, 512, 15, 15]               0
           Conv2d-13          [-1, 512, 15, 15]       2,359,808
             ReLU-14          [-1, 512, 15, 15]               0
        MaxPool2d-15            [-1, 512, 7, 7]               0
           Conv2d-16            [-1, 512, 7, 7]       2,359,808
             ReLU-17            [-1, 512, 7, 7]               0
        MaxPool2d-18            [-1, 512, 3, 3]               0
           Linear-19                   [-1, 10]          46,090
  ConvTranspose2d-20             [-1, 64, 3, 6]             320
             ReLU-21             [-1, 64, 3, 6]               0
  ConvTranspose2d-22            [-1, 512, 7, 7]         197,120
             ReLU-23            [-1, 512, 7, 7]               0
  ConvTranspose2d-24          [-1, 256, 15, 15]       1,179,904
             ReLU-25          [-1, 256, 15, 15]               0
  ConvTranspose2d-26          [-1, 128, 31, 31]         295,040
             ReLU-27          [-1, 128, 31, 31]               0
  ConvTranspose2d-28           [-1, 64, 63, 63]          73,792
             ReLU-29           [-1, 64, 63, 63]               0
  ConvTranspose2d-30         [-1, 32, 127, 127]          18,464
             ReLU-31         [-1, 32, 127, 127]               0
  ConvTranspose2d-32          [-1, 3, 256, 256]           1,539
================================================================
Total params: 8,082,861
Trainable params: 8,082,861
Non-trainable params: 0
----------------------------------------------------------------
Input size (MB): 0.75
Forward/backward pass size (MB): 151.80
Params size (MB): 30.83
Estimated Total Size (MB): 183.38
----------------------------------------------------------------
Training Epoch :   0 | Total loss : 0.7122 
…
