…
Currently supported shells are:
  - bash
  - fish
  - tcsh
  - xonsh
  - zsh
  - powershell

See 'conda init --help' for more information and options.

IMPORTANT: You may need to close and restart your shell after running 'conda init'.


SLURM_JOBID=/var/spool/slurm/slurmd/job30185907/slurm_script
Job Detail : AE ..AE.AE_12_3layer 50 Max 50-25 4 3
Training Size : 1734
Validation Size : 744
----------------------------------------------------------------
        Layer (type)               Output Shape         Param #
================================================================
            Conv2d-1         [-1, 64, 256, 256]           1,792
              ReLU-2         [-1, 64, 256, 256]               0
         MaxPool2d-3           [-1, 64, 64, 64]               0
            Conv2d-4          [-1, 256, 64, 64]         147,712
              ReLU-5          [-1, 256, 64, 64]               0
         MaxPool2d-6          [-1, 256, 16, 16]               0
            Conv2d-7          [-1, 512, 16, 16]       1,180,160
              ReLU-8          [-1, 512, 16, 16]               0
         MaxPool2d-9            [-1, 512, 4, 4]               0
           Linear-10                   [-1, 12]          98,316
  ConvTranspose2d-11            [-1, 512, 4, 4]          14,336
             ReLU-12            [-1, 512, 4, 4]               0
  ConvTranspose2d-13          [-1, 256, 16, 16]       2,097,408
             ReLU-14          [-1, 256, 16, 16]               0
  ConvTranspose2d-15           [-1, 64, 64, 64]         262,208
             ReLU-16           [-1, 64, 64, 64]               0
  ConvTranspose2d-17          [-1, 3, 256, 256]           3,075
================================================================
Total params: 3,805,007
Trainable params: 3,805,007
Non-trainable params: 0
----------------------------------------------------------------
Input size (MB): 0.75
Forward/backward pass size (MB): 91.19
Params size (MB): 14.51
Estimated Total Size (MB): 106.45
----------------------------------------------------------------
Training Epoch :   0 | Total loss : 0.5509 
…
