…
Currently supported shells are:
  - bash
  - fish
  - tcsh
  - xonsh
  - zsh
  - powershell

See 'conda init --help' for more information and options.

IMPORTANT: You may need to close and restart your shell after running 'conda init'.


SLURM_JOBID=/var/spool/slurm/slurmd/job30185887/slurm_script
Job Detail : Vgg16AE ..AE.vgg16AE_208 50 Max R50-22 4 3
Training Size : 1734
Validation Size : 744
----------------------------------------------------------------
        Layer (type)               Output Shape         Param #
================================================================
            Conv2d-1         [-1, 64, 256, 256]           1,792
              ReLU-2         [-1, 64, 256, 256]               0
            Conv2d-3         [-1, 64, 256, 256]          36,928
              ReLU-4         [-1, 64, 256, 256]               0
         MaxPool2d-5         [-1, 64, 128, 128]               0
            Conv2d-6        [-1, 128, 128, 128]          73,856
              ReLU-7        [-1, 128, 128, 128]               0
            Conv2d-8        [-1, 128, 128, 128]         147,584
              ReLU-9        [-1, 128, 128, 128]               0
        MaxPool2d-10          [-1, 128, 64, 64]               0
           Conv2d-11          [-1, 256, 64, 64]         295,168
             ReLU-12          [-1, 256, 64, 64]               0
           Conv2d-13          [-1, 256, 64, 64]         590,080
             ReLU-14          [-1, 256, 64, 64]               0
           Conv2d-15          [-1, 256, 64, 64]         590,080
             ReLU-16          [-1, 256, 64, 64]               0
        MaxPool2d-17          [-1, 256, 32, 32]               0
           Conv2d-18          [-1, 512, 32, 32]       1,180,160
             ReLU-19          [-1, 512, 32, 32]               0
           Conv2d-20          [-1, 512, 32, 32]       2,359,808
             ReLU-21          [-1, 512, 32, 32]               0
           Conv2d-22          [-1, 512, 32, 32]       2,359,808
             ReLU-23          [-1, 512, 32, 32]               0
        MaxPool2d-24          [-1, 512, 16, 16]               0
           Conv2d-25          [-1, 512, 16, 16]       2,359,808
             ReLU-26          [-1, 512, 16, 16]               0
           Conv2d-27          [-1, 512, 16, 16]       2,359,808
             ReLU-28          [-1, 512, 16, 16]               0
           Conv2d-29          [-1, 512, 16, 16]       2,359,808
             ReLU-30          [-1, 512, 16, 16]               0
        AvgPool2d-31            [-1, 512, 8, 8]               0
           Conv2d-32             [-1, 64, 8, 8]         294,976
           Linear-33                  [-1, 208]         852,176
           Conv2d-34             [-1, 64, 4, 4]           7,552
             ReLU-35             [-1, 64, 4, 4]               0
           Conv2d-36            [-1, 128, 4, 4]          73,856
             ReLU-37            [-1, 128, 4, 4]               0
         Upsample-38          [-1, 128, 16, 16]               0
           Conv2d-39          [-1, 256, 16, 16]         295,168
             ReLU-40          [-1, 256, 16, 16]               0
           Conv2d-41          [-1, 256, 16, 16]         590,080
             ReLU-42          [-1, 256, 16, 16]               0
         Upsample-43          [-1, 256, 32, 32]               0
           Conv2d-44          [-1, 128, 32, 32]         295,040
             ReLU-45          [-1, 128, 32, 32]               0
           Conv2d-46          [-1, 128, 32, 32]         147,584
             ReLU-47          [-1, 128, 32, 32]               0
         Upsample-48          [-1, 128, 64, 64]               0
           Conv2d-49           [-1, 64, 64, 64]          73,792
             ReLU-50           [-1, 64, 64, 64]               0
           Conv2d-51           [-1, 64, 64, 64]          36,928
             ReLU-52           [-1, 64, 64, 64]               0
         Upsample-53         [-1, 64, 128, 128]               0
           Conv2d-54         [-1, 32, 128, 128]          18,464
             ReLU-55         [-1, 32, 128, 128]               0
           Conv2d-56         [-1, 32, 128, 128]           9,248
             ReLU-57         [-1, 32, 128, 128]               0
         Upsample-58         [-1, 32, 256, 256]               0
           Conv2d-59         [-1, 16, 256, 256]           4,624
             ReLU-60         [-1, 16, 256, 256]               0
           Conv2d-61          [-1, 3, 256, 256]             435
================================================================
Total params: 17,414,611
Trainable params: 17,414,611
Non-trainable params: 0
----------------------------------------------------------------
Input size (MB): 0.75
Forward/backward pass size (MB): 363.08
Params size (MB): 66.43
Estimated Total Size (MB): 430.26
----------------------------------------------------------------
Training Epoch :   0 | Total loss : 0.9037 
…
